…
on='relu'))\n","model.add(layers.MaxPooling2D((2,2)))\n","model.add(layers.Conv2D(64, (3,3), activation='relu'))\n","\n","model.add(layers.Flatten())\n","model.add(layers.Dense(64, activation='relu'))\n","model.add(layers.Dense(10, activation='softmax'))\n","\n","model.summary()\n","          "],"execution_count":4,"outputs":[{"output_type":"stream","text":["_________________________________________________________________\n","Layer (type)                 Output Shape              Param #   \n","=================================================================\n","conv2d_1 (Conv2D)            (None, 26, 26, 32)        320       \n","_________________________________________________________________\n","max_pooling2d_1 (MaxPooling2 (None, 13, 13, 32)        0         \n","_________________________________________________________________\n","conv2d_2 (Conv2D)            (None, 11, 11, 64)        18496     \n","_________________________________________________________________\n","max_pooling2d_2 (MaxPooling2 (None, 5, 5, 64)          0         \n","_________________________________________________________________\n","conv2d_3 (Conv2D)            (None, 3, 3, 64)          36928     \n","_________________________________________________________________\n","flatten_1 (Flatten)          (None, 576)               0         \n","_________________________________________________________________\n","dense_1 (Dense)              (None, 64)                36928     \n","_________________________________________________________________\n","dense_2 (Dense)              (None, 10)                650       \n","=================================================================\n","Total params: 93,322\n","Trainable params: 93,322\n","Non-trainable params: 0\n","_________________________________________________________________\n"],"name":"stdout"}]},{"metadata":{"id":"8kW8KuBeW1m7","colab_type":"code","colab":{}},"cell_type":"code","source":["model.compile(optimizer= 'rmsprop',\n","            
…
